BotKeeper/data.pth (torch, 11178 bytes, 6 tensors)

l1.weight f4 [8, 79]
0	0xbda76dbe	-0.081752285
1	0x3d255728	0.04036632
2	0xbd8dccf2	-0.06923856
3	0xbd299d02	-0.0414095
4	0x3cd492d0	0.025948912
5	0xbd07c09a	-0.033142664
6	0x3d59170c	0.053000495
7	0x3db91ec4	0.09039071
8	0x3d07fa90	0.03319794
9	0xbbd04cb0	-0.006356798
10	0xbd9d59f8	-0.07683176
11	0xbd4aa3a0	-0.04947245
12	0x3da4724a	0.080296114
13	0xbdcffb95	-0.10155407
14	0x3dbc1672	0.091839686
15	0xbd8d2e04	-0.068935424
16	0xbdbf222a	-0.09332688
17	0xbcb1f5e0	-0.021723688
18	0xbda6a279	-0.08136458
19	0x3de55d24	0.11199406
20	0x3dce9538	0.10087055
21	0xbdaefa8f	-0.08543884
22	0xbd3d01b0	-0.046144187
23	0x3cd90238	0.026490316
24	0xbb4ca2a0	-0.0031224862
25	0x3d56b7e8	0.05242148
26	0xbc316948	-0.010828324
27	0x3d8d6514	0.06904045
28	0x3aab0380	0.0013047308
29	0xbd952828	-0.0728305
30	0xbddd3b8f	-0.108023755
31	0xbd2603f4	-0.040531114
32	0x3c6433f0	0.0139283985
33	0xbc105110	-0.008808389
34	0xbc9c3820	-0.019069731
35	0xbcde608c	-0.027145647
36	0xbda29844	-0.079391986
37	0xbc2cbe40	-0.010543406
38	0xbc096328	-0.008385457
39	0xbd36679e	-0.04453241
40	0x3d6c26ac	0.057654068
41	0xbd1e0c7c	-0.038586125
42	0x3b3f75c0	0.0029214472
43	0xbd32dc06	-0.043666862
44	0x3ccb2390	0.024797231
45	0xbc0e95b0	-0.0087026805
46	0xbbdf2250	-0.0068095103
47	0x3dbfb3ba	0.09360452
48	0xbaf32e40	-0.0018553212
49	0xbd9c22ac	-0.07623801
50	0x3d863f8a	0.06555088
51	0x3d33f710	0.04393679
52	0x3d455550	0.048177063
53	0xbbca1570	-0.0061671063
54	0x3be068e0	0.0068484396
55	0xbddea3b0	-0.10871065
56	0xbd1b9982	-0.037988193
57	0xbd917dba	-0.071040586
58	0x3dc277d8	0.09495515
59	0x3cf653f0	0.030069321
60	0x3c1e0e70	0.009646997
61	0x3dcbb7d4	0.09947172
62	0xba69a580	-0.0008912906
63	0x3c218e58	0.009860598
64	0x3d262f70	0.040572584
65	0x3ddc6d66	0.107630536
66	0x3c3044b0	0.010758564
67	0x3dc3d9fc	0.095630616
68	0xbd388ada	-0.045054294
69	0x3d63a1d0	0.05557424
70	0x3ce0dc10	0.027448684
71	0x3dcf9eb6	0.101376936
72	0xbda9489f	-0.082658045
73	0x3da66c7c	0.081261605
74	0xbd84bb6c	-0.064810604
75	0x3db07690	0.08616364
76	0x3dd3e418	0.1034624
77	0x3dd8dd56	0.105890915
78	0xbd6d13cc	-0.057880208
79	0xbd009028	-0.031387478
80	0x3d916d94	0.071009785
81	0xbd9f8558	-0.07789105
82	0x3b8ec710	0.004357226
83	0xbdcb9b38	-0.09941715
84	0xbc8420ec	-0.01612898
85	0xbd565ee7	-0.0523366
86	0x3c8595e8	0.016306832
87	0xbd793831	-0.060844604
88	0xbd2be5b8	-0.041967124
89	0xbde332c1	-0.11093665
90	0xbdb12781	-0.08650113
91	0x3c253bd0	0.010085061
92	0x3da1f442	0.079079166
93	0x3dd3727c	0.103245705
94	0x3d5beb3c	0.053691134
95	0x3d89ae22	0.06722666
96	0xbdc5eb98	-0.096640766
97	0xbd95260a	-0.07282646
98	0x3da1ccf4	0.0790042
99	0xbd99c2f9	-0.07507891
100	0x3d3e3248	0.04643467
101	0xbdbbca30	-0.091694236
102	0x3dcf07f4	0.10108939
103	0x3b3e8ca0	0.0029075518
104	0x3d769dac	0.06020896
105	0x3d3ff9b4	0.046868995
106	0x3d6b3cc0	0.057430983
107	0xbde07d05	-0.109613456
108	0xbc3da220	-0.011574298
109	0xbc8503a0	-0.01623708
110	0x3dd30268	0.10303193
111	0xbdc99dcb	-0.0984455
112	0xbd46751a	-0.04845152
113	0x3cc45db0	0.023970455
114	0x3d49cf9c	0.049270257
115	0x3c6e1cf0	0.014533266
116	0xbd195642	-0.037435777
117	0x3d77fdb8	0.0605447
118	0x3da13c94	0.078728825
119	0x3c3b37c8	0.0114268735
120	0xbd15ca4c	-0.03656988
121	0x3db9f4d6	0.09079902
122	0xbdda8070	-0.10669029
123	0x3ddc51d0	0.10757792
124	0xbd6456a5	-0.055746693
125	0x3d8f40e4	0.06994799
126	0x3dc8376c	0.09776196
127	0x3da21852	0.07914795
128	0xbcba1bc4	-0.022718318
129	0xbce80b34	-0.028325655
130	0x3d028df8	0.031873673
131	0x3dd62116	0.104555294
132	0xbdc81f16	-0.09771554
133	0xbc924430	-0.01785478
134	0x3dad18c0	0.08451986
135	0xbdb3e47c	-0.08783814
136	0xbdae23ed	-0.08502946
137	0x3d2bdcfc	0.041958794
138	0xbcfe577c	-0.031047575
139	0x3d9c62a8	0.07636005
140	0xbd426940	-0.047463655
141	0xbdca17de	-0.098678336
142	0x3c89d2a8	0.016824082
143	0xbda6466c	-0.08118901
144	0xbc7f0f98	-0.015567683
145	0xbddb5a1a	-0.10710545
146	0xbdb5643e	-0.0885701
147	0xbd607df0	-0.054807603
148	0xbdc5e828	-0.09663421
149	0xbd77412a	-0.06036488
150	0x3d3e90a0	0.046524644
151	0xbdde24ff	-0.108469
152	0x3d599f94	0.0531307
153	0x3da5920a	0.08084495
154	0xbdc078ad	-0.09398017
155	0x3dd3c7fe	0.1034088
156	0xbd6288b6	-0.05530616
157	0x3d9828ca	0.07429655
158	0xbdbb7860	-0.09153819
159	0x3d9e520c	0.07730493
160	0xbcd16c54	-0.02556435
161	0x3c8832c0	0.016625762
162	0xbd3c442a	-0.045963444
163	0x3d4b0c20	0.04957211
164	0x3d082590	0.033238947
165	0xbc955a10	-0.018231422
166	0xbc93c8f8	-0.018040165
167	0xbd9fbc10	-0.07799542
168	0xbdcef65f	-0.10105585
169	0xbd85e279	-0.06537337
170	0x3d97716a	0.07394679
171	0xbceb6f68	-0.028739646
172	0xbddc6198	-0.10760802
173	0x3c8a2b10	0.016866237
174	0x3dbb87be	0.0915675
175	0xbde2123c	-0.11038634
176	0xbd029870	-0.031883657
177	0x3db6a16a	0.08917506
178	0x3dc4d63e	0.09611176
179	0x3cdceea8	0.026969269
180	0x3c8e99e8	0.017407373
181	0xbd36de66	-0.04464569
182	0xbd05cfc0	-0.03266883
183	0x3d004634	0.03131695
184	0x3bd3d9a0	0.006465152
185	0xbd6cf8da	-0.05785451
186	0x3c374650	0.011186197
187	0x3d3b383c	0.045707926
188	0x3d220500	0.03955555
189	0x3d527320	0.051379323
190	0x3cf51bf0	0.029920548
191	0xbca3c2f8	-0.01999043
192	0xbdc0f156	-0.09421031
193	0x3d4cf0c8	0.050034314
194	0xbd506ddf	-0.05088603
195	0xbdcc5fc9	-0.09979207
196	0x3d66cbd4	0.05634673
197	0x3dc32288	0.09528071
198	0xbd419420	-0.047260404
199	0xbb550a00	-0.0032507181
200	0xbdd87312	-0.10568823
201	0xbdde17ce	-0.10844384
202	0x3db599a4	0.08867195
203	0x3d097528	0.033558995
204	0xbc5b6920	-0.013391763
205	0xbdbfa709	-0.09358031
206	0xbdbde86a	-0.09272845
207	0x3d12c7f0	0.035835207
208	0xbd3046d6	-0.043036304
209	0x3d8544ee	0.06507288
210	0x3d540298	0.051760286
211	0x3c3e8448	0.011628218
212	0xbdcfa587	-0.10138994
213	0x3c8739a0	0.01650697
214	0xbd9b22f3	-0.075750254
215	0x3d213e10	0.039365828
216	0xbd3bde28	-0.04586616
217	0xbd2c96d6	-0.042136036
218	0xbde54041	-0.11193896
219	0xbc94b6d8	-0.018153593
220	0x3d8452ee	0.0646113
221	0x3d6983b4	0.057010368
222	0xbda43787	-0.080184035
223	0xbc832a6c	-0.01601144
224	0x3dcf4e76	0.10122387
225	0x3d3ea310	0.046542227
226	0xbd4c85ce	-0.049932294
227	0x3d889742	0.06669475
228	0x3da5a4e0	0.08088088
229	0x3d1a9fbc	0.03774999
230	0x3d62d10c	0.055375144
231	0xbd600b5d	-0.054698337
232	0xbd837cc2	-0.0642028
233	0x3d14c450	0.03632003
234	0xbce76b00	-0.028249264
235	0x3ce19340	0.027536035
236	0x3d9eea14	0.077594906
237	0xbc757568	-0.014981605
238	0x3a964080	0.0011463314
239	0xbd941afa	-0.07231708
240	0xbda9ecbe	-0.08297108
241	0xbdaa65dc	-0.083202094
242	0x3c7c9480	0.0154162645
243	0x3d3fd1ec	0.046831056
244	0xbc8f2bfc	-0.017477028
245	0xbd83d366	-0.064368054
246	0x3d8685ac	0.06568465
247	0xbda8635d	-0.08222077
248	0xbdddfb61	-0.10838962
249	0xbd43ff9a	-0.047851183
250	0xbb854f60	-0.0040683
251	0xbd84f24f	-0.06491529
252	0x3d9a4bf4	0.07534018
253	0xbd299fd6	-0.041412197
254	0xbd28cdae	-0.041211776
255	0xbcae53c4	-0.021280177

l1.bias f4 [8]
0	0xbdd4cfbb	-0.10391184
1	0xbdd14f07	-0.102201514
2	0x3d510728	0.051032215
3	0x36558000	3.181398e-06
4	0x3da63508	0.08115584
5	0xbd5f6123	-0.054535996
6	0x3daf1320	0.0854857
7	0x3cd9b770	0.026576728

l2.weight f4 [8, 79]
0	0x3ccf5718	0.025310084
1	0x3dcc197a	0.09965797
2	0x3d417cd4	0.047238186
3	0x3daf6076	0.0856332
4	0x3d35ea1c	0.044412717
5	0x3d98e5bc	0.07465693
6	0x3db71fac	0.08941588
7	0xbd7ced42	-0.061749704
8	0x3dbe413c	0.09289786
9	0x3d01decc	0.031706616
10	0x3dab3c3a	0.08361097
11	0xbd9e3147	-0.07724243
12	0x3d6085a0	0.054814935
13	0xbd302936	-0.04300805
14	0x3dddc05c	0.10827705
15	0x3d6e9f60	0.05825746
16	0x3db60e50	0.08889449
17	0x3da027b6	0.07820074
18	0x3d68c5dc	0.05682932
19	0x3d658514	0.056035116
20	0xbc815990	-0.015789777
21	0xbde1700a	-0.11007698
22	0xbc01a078	-0.007911794
23	0xbd589446	-0.05287578
24	0x3d9472c4	0.07248452
25	0x3d399328	0.045306355
26	0xbd1a8b60	-0.037730575
27	0x3d70424c	0.058656976
28	0xbdd70a2e	-0.104999885
29	0x3cf11de0	0.02943319
30	0xbca18014	-0.019714393
31	0xbda61412	-0.08109297
32	0x3ce37df0	0.027770013
33	0xb9f3f200	-0.00046528876
34	0xbd907934	-0.07054368
35	0x3c1030a8	0.008800663
36	0x3dd32f1c	0.1031172
37	0xbd95a388	-0.07306582
38	0x3c732450	0.014840201
39	0x3d6dc820	0.058052182
40	0xbde2d195	-0.11075131
41	0xbce31750	-0.027721077
42	0xbdcca50d	-0.099924184
43	0xbdc64760	-0.096815825
44	0xbcb07d24	-0.021544047
45	0x3daf89aa	0.08571179
46	0x3d8a8628	0.067638695
47	0x3cf21f28	0.029555872
48	0x3d9bd3a8	0.076087296
49	0xbd6bce6c	-0.057569906
50	0xbd29149c	-0.04127942
51	0x3d1c1b5c	0.03811203
52	0x3dac2882	0.08406164
53	0xbcf2b58c	-0.029627584
54	0xbd1384f4	-0.036015466
55	0xbd5b9331	-0.05360717
56	0xbb334aa0	-0.0027357712
57	0x3dbf8f42	0.09353496
58	0xbcfdd124	-0.030983515
59	0x3dd8fcf6	0.105951235
60	0xbdcb5a5f	-0.09929346
61	0x3d9ef4ae	0.07761513
62	0x3da0d7aa	0.07853635
63	0xbdacfef1	-0.08447064
64	0x3d4e26a8	0.050329834
65	0x3dc53f4e	0.09631215
66	0x3dc8d312	0.098058835
67	0x3d7fe46c	0.0624737
68	0x3c6fcef0	0.01463674
69	0xbbd29b40	-0.0064271986
70	0x3d855a28	0.065113366
71	0xbd9369f4	-0.07197943
72	0xbdce4960	-0.10072589
73	0xbdcee023	-0.101013444
74	0xbd5fef2e	-0.05467146
75	0x3ddb1808	0.10697943
76	0x3d0f89a8	0.03504339
77	0x3c96b480	0.018396616
78	0xbdcab532	-0.098978415
79	0xbdd48ab5	-0.10378019
80	0xbdc87f8d	-0.097899534
81	0xbddd15a5	-0.10795144
82	0xbc97aa38	-0.018513784
83	0x3de20532	0.11036147
84	0xbcbfd34c	-0.023416184
85	0x3d88ba08	0.06676108
86	0x3dc2a21e	0.09503578
87	0xbbb1db30	-0.0054277405
88	0xbbc69e30	-0.006061338
89	0x3d95dae2	0.07317139
90	0x3da69646	0.08134131
91	0xbdbf66f6	-0.0934581
92	0x3dbfa904	0.09358409
93	0x3daa26a8	0.08308154
94	0xbd412c6c	-0.047161505
95	0x3d7ff0c4	0.06248547
96	0x3da80c84	0.08205512
97	0x3cb45178	0.022011504
98	0x3acb39c0	0.0015504882
99	0x3d20e9f0	0.0392856
100	0x3d4e848c	0.050419375
101	0xbb4d63e0	-0.0031340048
102	0xbd96f324	-0.07370594
103	0x3db161fe	0.08661269
104	0xbdabd3ed	-0.08390031
105	0xbdb1046a	-0.0864342
106	0x3dc1bf36	0.09460299
107	0x3db4d132	0.08828963
108	0xbde0a2f4	-0.10968581
109	0x3d06e9b0	0.032937706
110	0x3dc58b1c	0.09645674
111	0x3d2992e4	0.04139985
112	0xbd152e40	-0.03642106
113	0x3cf02678	0.029315218
114	0xbd5cac15	-0.053875048
115	0xbdd3a752	-0.10334648
116	0x3bd79770	0.006579332
117	0xbd0b2de4	-0.03397931
118	0x3d897b16	0.0671293
119	0xbda4a50a	-0.08039291
120	0xbd1f6f7a	-0.03892467
121	0xbde51047	-0.11184745
122	0xbccd20e4	-0.025040098
123	0xbd7dfcd7	-0.062008705
124	0xbc9cd918	-0.019146487
125	0x3c315bf0	0.010825142
126	0xbdbb2dea	-0.09139617
127	0x3d6e8de8	0.0582408
128	0x3dde4a1e	0.108539805
129	0xbd82fe66	-0.06396179
130	0x3d64f284	0.055895343
131	0x3cc46608	0.023974434
132	0xbb4d44a0	-0.0031321421
133	0x3dc7f554	0.097635895
134	0xbc80326c	-0.015649043
135	0x3cc54560	0.024080932
136	0xbcf1009c	-0.029419236
137	0xbab19600	-0.0013548732
138	0x3d89b552	0.06724037
139	0xbc896090	-0.016769677
140	0x3d80791a	0.06273098
141	0x3d836baa	0.0641702
142	0x3de42476	0.11139767
143	0xbd72e649	-0.05930165
144	0x3d38c510	0.04510981
145	0x3d266190	0.040620387
146	0xbd13ccb4	-0.036083892
147	0xbd989a84	-0.074513465
148	0x3d23bcb0	0.03997487
149	0xbda222d6	-0.07916801
150	0xbdd8b44c	-0.10581264
151	0x3d8dc99a	0.06923218
152	0xbd37323c	-0.04472564
153	0x3bb07e80	0.0053861737
154	0xbdd7a2e1	-0.105291136
155	0x3c96fd40	0.018431306
156	0x3c6831b0	0.014172003
157	0xbd673b1b	-0.05645285
158	0xbce579d0	-0.028012186
159	0x3da88824	0.08229092
160	0xbdd0397f	-0.101672165
161	0xbd01dce2	-0.03170479
162	0xbd8ed320	-0.06973863
163	0x3d2b7f2c	0.041869327
164	0x3c931f80	0.017959356
165	0x3d2db144	0.04240538
166	0xbbd074b0	-0.0063615665
167	0x3db00978	0.08595556
168	0xbc9c8a7c	-0.019109003
169	0xbd079666	-0.033102416
170	0x3dc6ff6e	0.09716688
171	0x3dc9a644	0.09846166
172	0xbd83185c	-0.064011306
173	0xbc595428	-0.013264693
174	0x3d6a1f04	0.057158485
175	0xbd823b72	-0.063589945
176	0x3d27adc0	0.040937185
177	0xbd9f9329	-0.077917404
178	0xbddf7822	-0.109115854
179	0x3db27bc2	0.08715011
180	0xbd14c0d2	-0.0363167
181	0x3dd94cd8	0.1061036
182	0x3d88e326	0.0668395
183	0x3d762c78	0.060101002
184	0x3c7f1040	0.015567839
185	0x3c5e7830	0.01357846
186	0x3d1c40e8	0.038147837
187	0x3c757740	0.014982045
188	0xbde5c32a	-0.11218865
189	0x3d96e40c	0.07367715
190	0xbb59ec20	-0.0033252314
191	0xbdd31850	-0.103073716
192	0x3da22c88	0.0791865
193	0xbd4400c4	-0.047852293
194	0x3dbd2d9c	0.09237215
195	0x3d1e7790	0.038688242
196	0x3d460bd0	0.04835111
197	0xbd9c3cac	-0.0762876
198	0xbd941418	-0.07230395
199	0x3d8686cc	0.06568679
200	0x3cd92ad8	0.026509687
201	0xbdbd8f21	-0.09255815
202	0xbcab5394	-0.020913877
203	0x3dd36798	0.10322493
204	0xbdbd1739	-0.09232945
205	0xbd9442e7	-0.07239323
206	0xbda18a83	-0.07887747
207	0x3d33c288	0.04388669
208	0x3d8869c0	0.06660795
209	0xbcafa828	-0.021442488
210	0xbc6eb030	-0.014568374
211	0x3bbaa830	0.005696319
212	0x3d85c980	0.06532574
213	0xbcf75930	-0.030193895
214	0x3d19a098	0.03750667
215	0x3ddc88b2	0.1076826
216	0x3d44722c	0.047960445
217	0xbd6e3325	-0.058154244
218	0x3d860fc4	0.06545976
219	0xbdd47929	-0.10374672
220	0xbd830ecc	-0.06399307
221	0x3c9de7c0	0.019275546
222	0xbd512281	-0.051058296
223	0xbd826fc4	-0.06368974
224	0x3d10c5d4	0.035344914
225	0x3d90230c	0.07037935
226	0x3dc2e1e4	0.095157415
227	0x3d82eef6	0.063932344
228	0x3d7f0980	0.06226492
229	0x3d651fa4	0.055938378
230	0xbdd31f0e	-0.103086576
231	0xbd6215f0	-0.055196702
232	0x3d2eec34	0.04270573
233	0xbd9a12d3	-0.07523122
234	0x3d795774	0.060874417
235	0x3a750b80	0.0009347722
236	0xbdd78a1d	-0.1052439
237	0xbda8238b	-0.08209904
238	0xbbbe4770	-0.005806856
239	0x3d9deae0	0.077108145
240	0x3cb97240	0.022637486
241	0xbd410bec	-0.04713051
242	0x3c40a8d0	0.011758998
243	0x3d0eeb48	0.03489235
244	0x3c8cba08	0.01717855
245	0x3d872f34	0.066008
246	0xbd6ca2b6	-0.05777236
247	0xbdca20b4	-0.09869519
248	0xbdaaa780	-0.08332729
249	0x3db4f4fa	0.08835788
250	0xbd9210b2	-0.07132091
251	0xbd0a453c	-0.033757433
252	0xbdd633f8	-0.10459131
253	0x3d24cc20	0.04023373
254	0xbd335cc8	-0.043789655
255	0xbd18db38	-0.03731844

l2.bias f4 [8]
0	0xbdd8c3d3	-0.105842255
1	0xbd24e442	-0.040256746
2	0xba8f3200	-0.0010924935
3	0xbc00c968	-0.007860519
4	0xbddb0116	-0.106935665
5	0xbd0559cc	-0.03255634
6	0x3d88f87e	0.06688021
7	0x3da496d8	0.08036584

l3.weight f4 [8, 79]
0	0xbf4d8bf8	-0.802917
1	0xbf87375f	-1.0563773
2	0xbf822588	-1.0167704
3	0x3f4d0ef7	0.8010096
4	0x3e6038b5	0.21896632
5	0xbf3f1165	-0.74635917
6	0xbea03586	-0.31290835
7	0x3ee61841	0.4494038
8	0x3f205a99	0.6263824
9	0xbedfaa1c	-0.4368447
10	0xbecd9b9c	-0.40157783
11	0xbf76f6a3	-0.9647009
12	0xbfb5381e	-1.4157751
13	0xbf6578e3	-0.89637583
14	0xbf4b425f	-0.7939815
15	0xbf3cd9b3	-0.7376968
16	0xbf25059d	-0.6446169
17	0x3f8e99b9	1.1140662
18	0xbf534475	-0.8252633
19	0xbf747759	-0.9549461
20	0x3f3b663f	0.7320289
21	0xbf1b8a90	-0.60758305
22	0xbf285b30	-0.6576414
23	0x3e3d170c	0.18465823
24	0xbf6811f1	-0.90652376
25	0xbf411e2b	-0.7543666
26	0xbef4ce0f	-0.4781346
27	0xbf985969	-1.1902286
28	0x3f3c6594	0.73592496
29	0xbf17d675	-0.5931161
30	0x3f2de2c5	0.6792415
31	0xbfa4954b	-1.2858061
32	0xbf9f5378	-1.2447348
33	0xbf9bd9e8	-1.2175875
34	0xbf1bb739	-0.6082645
35	0xbfa453ce	-1.2838075
36	0xbf4bb387	-0.7957081
37	0xbf85bcf5	-1.044829
38	0xbf1327d9	-0.5748268
39	0xbfa38a2f	-1.2776545
40	0xbf2cdfe2	-0.6752912
41	0xbf7777df	-0.96667284
42	0x3f46e230	0.77688885
43	0x3f15a124	0.58449006
44	0xbf8072dc	-1.0035052
45	0xbf18f01d	-0.59741384
46	0x3f470bea	0.77752554
47	0xbf7630d5	-0.9616826
48	0xbf3d7d07	-0.740189
49	0xbef2cd7d	-0.474224
50	0xbf01c76b	-0.5069491
51	0x3f070888	0.5274739
52	0x3f81d877	1.0144185
53	0xbf4d1262	-0.80106175
54	0xbf5aec95	-0.85517246
55	0xbef094f1	-0.46988633
56	0x3f2a1352	0.6643573
57	0xbf28ce5e	-0.6593989
58	0xbf83b47b	-1.0289453
59	0xbf9352dc	-1.1509662
60	0xbf97a063	-1.1845821
61	0xbf21deba	-0.6323048
62	0x3ee8270d	0.45342293
63	0xbf8a79a2	-1.0818369
64	0xbcc8e33f	-0.024522422
65	0xbf4da21e	-0.80325496
66	0x3f16377b	0.58678406
67	0xbf2fbd6b	-0.68648404
68	0xbf19925e	-0.59988964
69	0xbeb42ffe	-0.35192865
70	0xbecdc5e4	-0.4019004
71	0xbfc2b204	-1.5210576
72	0xbef2e7d3	-0.47442493
73	0xbf8fbc1b	-1.122928
74	0xbf147f3c	-0.58006644
75	0xbf81ea7c	-1.0149684
76	0xbf03c0f5	-0.51466304
77	0xbf233c7b	-0.6376416
78	0xbdb934ce	-0.09043275
79	0xbf59bae8	-0.8505082
80	0xbe94a27c	-0.29030216
81	0xbf126430	-0.57184124
82	0xbf178826	-0.5919212
83	0xbef3a398	-0.4758575
84	0xbf37c63d	-0.7178686
85	0xbf01730b	-0.50566167
86	0xbf77f242	-0.9685403
87	0xbf44bf8a	-0.76854765
88	0xbf0124b1	-0.5044661
89	0xbed76062	-0.42065722
90	0xbf7b328f	-0.9812402
91	0xbfa15165	-1.2602965
92	0xbf715c4d	-0.94281465
93	0xbf249790	-0.64293766
94	0xbebb7e3d	-0.3661975
95	0xbf26ca0e	-0.6515206
96	0xbee9d360	-0.4566908
97	0xbf272dcc	-0.65304255
98	0xbf65fbbd	-0.8983725
99	0xbebc7655	-0.3680903
100	0x3f1d9f2c	0.61571
101	0xbec1a693	-0.378224
102	0xbf81f7c6	-1.015374
103	0x3f3c760d	0.7361763
104	0xbe6a28f6	-0.22867188
105	0x3f1b3a80	0.6063614
106	0xbf9c507d	-1.2212063
107	0xbe890a22	-0.26765543
108	0xbeb43f9a	-0.35204774
109	0xbf4fdea2	-0.81199086
110	0xbf9a7bdc	-1.2069049
111	0xbf8b2a8e	-1.0872362
112	0xbf89d042	-1.076668
113	0xbf1c9638	-0.61166716
114	0x3f2847fd	0.65734845
115	0x3ed7b3c5	0.4212934
116	0xbf7a3e2d	-0.9775112
117	0xbf2cdf07	-0.6752781
118	0xbefef8ce	-0.49799198
119	0xbebc7f3d	-0.36815825
120	0xbf534c4c	-0.82538295
121	0x3f39a317	0.7251448
122	0xbed52d09	-0.41635922
123	0xbf11fe02	-0.5702821
124	0x3f07d674	0.53061604
125	0xbf2b2f26	-0.6686882
126	0xbee55b0c	-0.44796026
127	0xbf3a1f6b	-0.7270419
128	0x3f38a198	0.7212157
129	0xbf548411	-0.8301402
130	0xbe9cf3d5	-0.3065478
131	0xbf1d2cce	-0.6139649
132	0xbecfe503	-0.4060441
133	0xbf4de72f	-0.80430883
134	0xbe49f0b5	-0.19720729
135	0xbe8b859f	-0.27250382
136	0xbed2437b	-0.4106711
137	0xbf4b8b70	-0.7950964
138	0xbf2344fc	-0.63777137
139	0xbe8ec3d7	-0.2788379
140	0x3f3f1467	0.74640507
141	0xbf2a9742	-0.6663705
142	0x3f1e99b7	0.619533
143	0xbf3f989a	-0.74842227
144	0xbe89ad21	-0.268899
145	0xbec69127	-0.38782617
146	0xbf30c37d	-0.6904829
147	0xbf307203	-0.6892397
148	0xbea475c8	-0.3212111
149	0xbf069db7	-0.52584404
150	0xbf0b7a92	-0.544839
151	0xbe5b1ce3	-0.21397738
152	0xbf23ca24	-0.6398032
153	0x3f1c535a	0.61064684
154	0xbeff958d	-0.49918786
155	0x3f25a000	0.64697266
156	0xbf48c8cf	-0.7843141
157	0xbf8e9599	-1.1139404
158	0x3f6f9679	0.9358898
159	0xbe8a908c	-0.27063406
160	0xbf15f5be	-0.585781
161	0xbedd20c8	-0.43189073
162	0xbeea4abd	-0.45760146
163	0xbf6f01a8	-0.933619
164	0xbed93bad	-0.42428342
165	0xbf5bd4a9	-0.8587137
166	0xbf3bb38f	-0.7332086
167	0xbeac43d4	-0.336455
168	0xbed5e32f	-0.4177489
169	0xbf632d32	-0.8874084
170	0xbfa3b313	-1.2789024
171	0xbf35adb3	-0.7096817
172	0xbeda1082	-0.4259072
173	0xbea896f7	-0.32927677
174	0xbf214b2d	-0.63005334
175	0xbef78762	-0.48345476
176	0xbf1457b5	-0.5794633
177	0xbf513f1d	-0.8173693
178	0xbeea89ea	-0.45808345
179	0xbf0e3d7a	-0.55562556
180	0xbe8a1c62	-0.2697478
181	0xbf59f0d4	-0.851331
182	0xbf25ffc0	-0.6484337
183	0xbe86155f	-0.2618818
184	0xbf1bc634	-0.6084931
185	0xbf8e1c2e	-1.110235
186	0xbe8409ae	-0.25788635
187	0xbeb80d7d	-0.3594779
188	0xbf499790	-0.7874689
189	0xbfa5902c	-1.2934623
190	0xbf959949	-1.1687404
191	0xbf93d7f3	-1.1550277
192	0x3f3f6d3b	0.7477605
193	0xbf4c07f1	-0.7969962
194	0xbf465b9d	-0.7748354
195	0x3f1572ed	0.5837849
196	0x3f681795	0.90660983
197	0xbf12fa21	-0.57412916
198	0xbebd07cc	-0.3692001
199	0xbf5fcfe4	-0.8742659
200	0xbf5a0a23	-0.8517172
201	0xbef69fd4	-0.48168814
202	0xbf3765fe	-0.7164
203	0xbf2082ae	-0.626994
204	0xbf04f4a1	-0.51935774
205	0xbf0ef7cd	-0.55846864
206	0x3f29f3d4	0.6638768
207	0xbf27ae4d	-0.65500337
208	0xbf18002d	-0.5937527
209	0xbee88065	-0.45410457
210	0xbf1569b5	-0.5836442
211	0xbef5f26c	-0.48036516
212	0xbf0ccaf1	-0.54997164
213	0xbe3fa804	-0.18716437
214	0xbe93caaf	-0.28865573
215	0xbecd6eb9	-0.40123537
216	0xbf3d2576	-0.73885286
217	0xbf38848c	-0.7207725
218	0xbee69e3b	-0.45042595
219	0xbef310e3	-0.4747382
220	0xbf3511e1	-0.70730406
221	0xbf4648d8	-0.774549
222	0xbf7ecd11	-0.99531657
223	0xbec83c88	-0.39108682
224	0xbec7dc42	-0.3903523
225	0x3f50200d	0.81298906
226	0x3f4b09ab	0.7931163
227	0xbebb5ddb	-0.36595044
228	0xbeb66da5	-0.35630527
229	0xbf2921df	-0.6606731
230	0xbe736a39	-0.2377099
231	0xbf16cb45	-0.58903915
232	0xbef7191a	-0.48261338
233	0xbefc8e31	-0.49327233
234	0xbf10253d	-0.5630682
235	0xbf0bd1b9	-0.54616886
236	0xbf82b4a5	-1.0211378
237	0xbf8d57b0	-1.1042385
238	0xbee8b023	-0.45446882
239	0xbf8de8c6	-1.1086662
240	0xbf3724cf	-0.7154054
241	0xbf332a3a	-0.6998631
242	0xbf7efea6	-0.9960731
243	0xbed0c028	-0.40771604
244	0xbfa1b56d	-1.2633492
245	0xbf4a20af	-0.7895612
246	0xbef6f4a2	-0.48233515
247	0xbefaf712	-0.49016625
248	0x3f96946f	1.1764048
249	0x3fb81465	1.4381224
250	0xbf834da9	-1.0258075
251	0xbf664162	-0.89943516
252	0xbed5d2a1	-0.4176226
253	0xbf28059e	-0.6563357
254	0xbf5602d6	-0.8359808
255	0xbf6bb08a	-0.9206625

l3.bias f4 [8]
0	0xbf284243	-0.6572611
1	0xbf40de73	-0.7533943
2	0xbf3cca3e	-0.737461
3	0x3f1d51b6	0.61452806
4	0x3fa419a2	1.2820323
5	0xbf25bc27	-0.6474022
6	0xbf1002d7	-0.56254333
7	0xbef61543	-0.48063096
